keyword_model.pth (torch_old, 8933 bytes, 14 tensors)

transitions f4 [5, 5]
000000 e1 67 23 bf 63 58 8e bf 34 cf 8f 3f bf c9 11 bf
       -0.6383038 -1.1120723 1.1235108 -0.56948465
000010 68 05 1c c6 d9 d7 4a 40 5e 50 84 bf d9 95 9c bf
       -9985.352 3.1694243 -1.0337026 -1.223323
000020 d1 46 61 bf 68 05 1c c6 5c e4 b6 be 2a 09 a2 3f
       -0.8799868 -9985.352 -0.357211 1.2659047
000030 83 12 a7 3f 4d a0 d8 bf 68 05 1c c6 68 05 1c c6
       1.3052524 -1.692392 -9985.352 -9985.352
000040 68 05 1c c6 68 05 1c c6 68 05 1c c6 68 05 1c c6
       -9985.352 -9985.352 -9985.352 -9985.352
000050 20 6e 8a bf 11 ed 9c bd 64 c5 e2 3f b3 6b 96 bf
       -1.0814857 -0.07662404 1.7716489 -1.1751617
000060 68 05 1c c6
       -9985.352

weight f4 [225, 5]
000000 fe 84 c2 bf c6 c3 44 bf a4 7d 24 bf 90 9b c8 bf
       -1.5196836 -0.76861227 -0.6425421 -1.5672474
000010 a9 b3 a4 bd b5 c0 fd be 27 58 95 bf 4d 1c 8b bf
       -0.0804208 -0.49561086 -1.1667527 -1.0868012
000020 9f 6c ba be 18 4c 03 3f f1 11 77 bf 88 1d 72 3e
       -0.36410996 0.51287985 -0.9651175 0.23644078
000030 57 96 e4 be c2 1e a5 3f e1 20 7d 3e 13 55 ee 3e
       -0.4464595 1.2900012 0.24719574 0.4654928
000040 f3 df 28 bf 68 c5 93 bf 33 29 32 3f bf f0 3b 3e
       -0.6596672 -1.1544619 0.69594115 0.18353556
000050 a3 c6 54 3f c4 30 3e 3e 38 84 1e bf 8d 1a 55 3f
       0.83115596 0.1857329 -0.619205 0.8324364
000060 96 25 89 3f 0e 5b 2d be 01 30 0e c0 9c 34 bb bf
       1.0714595 -0.16929266 -2.22168 -1.462543
000070 d8 ee 4b 3d a2 53 1e bf 04 85 49 bf c8 67 24 bd
       0.049788326 -0.61846364 -0.7871859 -0.040138036
000080 57 69 eb 3f 99 90 e0 bd 20 fd 13 3e 57 f5 4c bf
       1.8391522 -0.1096508 0.14452028 -0.8006186
000090 61 fa 40 3e 2b 00 0e 3d 02 45 1a 3e fc b9 e4 be
       0.18845512 0.03466813 0.15065387 -0.44673145
0000a0 4a c2 bf bd 28 61 ca 3e df 43 10 be f1 89 ec bc
       -0.093632296 0.3952725 -0.14088391 -0.02887437
0000b0 a2 26 16 40 05 03 77 bf 49 18 ee 3f 29 f8 2b bf
       2.346108 -0.9648898 1.8601161 -0.6717554
0000c0 be d3 82 bf 19 d4 ca 3e 57 d0 42 3d 5c 38 80 bf
       -1.0220869 0.39614943 0.04756197 -1.00172
0000d0 4c f8 86 3f 53 52 6d 3f b4 07 99 3f 48 7b 03 40
       1.0544524 0.9270374 1.1955476 2.0543995
0000e0 fc 07 12 3e d6 a5 84 3f 98 70 cd bd 5f f9 3f bf
       0.14260858 1.0363109 -0.10031241 -0.74989885
0000f0 0d 0f c6 3f 64 55 5f bf 44 1b 55 c0 5d 5e 40 bf
       1.5473343 -0.8723967 -3.3297892 -0.75143987
000100 f9 29 37 bd 7a c4 82 bf ce c8 1a bf 68 30 7c bf
       -0.044717763 -1.021621 -0.60462654 -0.9851136
000110 8e ed 46 be 3e 3c 4f bc c0 42 d3 3f 11 b1 83 bc
       -0.19426557 -0.01264864 1.6504745 -0.016075643
000120 a3 2f 28 bf fc 1f 06 be 09 29 85 bf 35 11 53 bf
       -0.6569769 -0.13098139 -1.0403148 -0.8244813
000130 b4 03 e6 be 7a f1 0e bf bb 28 cd 3e 31 78 7c bf
       -0.449247 -0.55837214 0.40070137 -0.986209
000140 70 d8 02 bf 46 97 d0 3d dc b1 27 bf 63 99 3b 3f
       -0.5111151 0.10185103 -0.65505767 0.73280925
000150 04 89 b7 bf 75 a2 05 bf 95 2a 35 3e 85 13 32 be
       -1.4338689 -0.52201015 0.17692025 -0.17390259
000160 51 d1 7f 3e 15 e0 f9 be 5a 59 83 bf 38 94 4d 3f
       0.24982192 -0.48803774 -1.0261643 0.8030429
000170 c0 1c 83 bf 02 dc ee be bc 17 97 3e 33 aa fc 3f
       -1.0243149 -0.46652228 0.29510295 1.9739441
000180 ba 60 33 3f 58 cb 96 3f c5 af 4e 3f 1c 35 62 bf
       0.7006947 1.1780806 0.80736953 -0.8836229
000190 7a b5 b8 3f 2d 91 f9 be b8 1b 74 bf e6 07 85 3f
       1.4430382 -0.48743573 -0.95354795 1.0393035
0001a0 cd 61 b9 3f 1f 0e f3 3d 35 9c c9 3e 10 09 13 bf
       1.4482971 0.11867928 0.3937699 -0.57435703
0001b0 85 75 15 c0 ae 40 53 3b 4f 64 ac bf 9b f7 da bf
       -2.3352978 0.0032234597 -1.3468112 -1.7106813
0001c0 19 a5 c4 3f f0 be bf be d5 7a ef 3f 30 bb 75 3f
       1.5362884 -0.3745036 1.870936 0.9598875
0001d0 01 3e a7 3e 02 ce db 3e d8 5e 28 3f a8 ea 13 bf
       0.32664493 0.4293061 0.6576972 -0.5777993
0001e0 65 61 26 40 09 01 5c be ad aa 5e 3c 6f 9a f3 3f
       2.5996945 -0.2148477 0.013590497 1.9031504
0001f0 9b 68 02 c0 c6 8e e9 3f 76 28 42 3d 92 78 9b 3e
       -2.0376346 1.8246696 0.047401868 0.30365425
000200 6a 8c 35 3f 46 fa ea bf 85 aa 78 3e 1d 28 2c 3f
       0.7091738 -1.8357627 0.24283798 0.6724871
000210 46 ee 0c bf 1e 4a e5 bf 28 d6 17 3f 32 43 94 bf
       -0.55051076 -1.7913244 0.5931115 -1.1583006
000220 e5 c3 18 c0 ba f1 02 c0 a1 10 59 3f 56 9b 84 3f
       -2.3869565 -2.0460038 0.84791 1.0359905
000230 13 6e 11 40 a3 a5 3c 3f f9 b6 c4 3f d4 8d e3 bf
       2.2723434 0.7369024 1.5368339 -1.7777658
000240 da 0e b2 bf d5 bd 81 bf fc 5c af 3f 33 ac 2a 3f
       -1.3910782 -1.0136057 1.3700252 0.66669005
000250 3a 53 30 3f 2a 45 a9 be eb ef 18 3f 19 10 c2 bf
       0.68876994 -0.3306058 0.59741086 -1.5161163
000260 9e 6f 6b 3f 50 7d 90 3e 2f d0 0a 3e 8a 95 a1 3f
       0.9196719 0.28220606 0.13555978 1.2623761
000270 c9 10 9e 3f 6b ea cb 3f be 37 33 bf 44 f1 44 40
       1.2348872 1.5930914 -0.7000693 3.0772257
000280 a7 21 bd 3e 64 f4 9b be 63 93 49 bf e3 07 8f be
       0.36939737 -0.30459893 -0.7874052 -0.27935705
000290 7d 05 0c bf b1 67 79 bf b5 f1 63 3f bd 8d 7b 3f
       -0.54695874 -0.97423846 0.8904069 0.9826315
0002a0 22 b9 9d 3e b6 a7 ba 3f f3 b8 99 3f a9 88 e7 bf
       0.30805308 1.4582431 1.2009567 -1.808858
0002b0 4f 1d d3 be c1 f7 72 bf 3f 45 0d bb 90 4e 46 bd
       -0.41233298 -0.9490929 -0.0021556166 -0.048414767
0002c0 94 da 93 3f e6 22 86 3f 00 00 cd 3e 13 e2 ec 3f
       1.155108 1.04794 0.40039062 1.8506492
0002d0 25 25 77 bf 6a 18 12 3e 44 b5 2d be 45 be b3 be
       -0.96541053 0.14267126 -0.16963679 -0.35106102
0002e0 8e e2 dc 3f f7 3f 8f be 7d 9b a8 3e 0e 13 b1 3f
       1.7256639 -0.2797849 0.32931128 1.383394
0002f0 f4 6d 05 3e ee 6b 71 3f 95 48 ba be a3 78 5a 3f
       0.13030225 0.9430531 -0.363835 0.8534033
000300 77 48 18 bf 6a 35 59 3f 20 75 e5 3f f4 16 82 be
       -0.5948557 0.8484713 1.7926369 -0.25408137
000310 1b f2 d0 3e 72 30 f3 bf 2c 7c 38 c0 a1 77 f1 be
       0.40809712 -1.8999159 -2.8825788 -0.47161582
000320 92 da 07 bf 82 ec 6a 3f b0 0a 4a bf db fe 2a 3f
       -0.53067887 0.9176713 -0.7892256 0.6679513
000330 f9 56 bf bf c0 22 43 be bb c6 40 3f 13 4b 63 3d
       -1.4948417 -0.19056225 0.7530324 0.05549152
000340 60 58 61 3f 47 2e 84 3f ce 28 29 bf 5f 95 96 3f
       0.88025475 1.0326623 -0.6607789 1.1764334
000350 ee b9 0f 3f bc 7c 1c 40 15 0b 2e 40 9f 38 c3 3f
       0.5614308 2.4451132 2.7194264 1.5251654
000360 78 26 13 bf 3f 11 a4 3f 21 31 7c 3f 6d ec 38 bf
       -0.57480574 1.2817763 0.98512465 -0.7223576
000370 26 72 83 3e 5d 3f 88 bd 26 d1 92 3f 80 3e a6 3f
       0.25673026 -0.066527106 1.1470077 1.2987823
000380 bc 6f f6 3f 2a d0 58 be a8 47 fc 3d 3c c5 d0 bf
       1.9252849 -0.21173158 0.12318355 -1.6310191
000390 ef 80 83 3f cc 01 90 3f dc 3b 9e 3e 71 9d 93 3e
       1.0273722 1.1250548 0.30905044 0.28831056
0003a0 34 82 32 bd 1a 6a c8 3e 8e 83 70 3f 7c de b6 bf
       -0.043581203 0.3914345 0.93950737 -1.4286647
0003b0 94 8d d2 3f d7 fa 17 c0 b9 27 67 bf 94 63 b4 3e
       1.6449456 -2.374685 -0.90294987 0.35232222
0003c0 c8 27 38 3e 72 9c 5c 3f 62 7d bd 3f 3f fa d6 be
       0.17983925 0.86176217 1.4803889 -0.41987798
0003d0 e2 86 27 bf 0a 73 11 be a3 2a 32 be 5d ee ab 3d
       -0.6544019 -0.1420404 -0.17399077 0.083950736
0003e0 bc 17 ef 3e 8a 1d 0c bf a0 01 00 bf 96 54 48 3f
       0.46697795 -0.54732573 -0.5000248 0.7825407
0003f0 68 44 80 3e 19 71 49 bf 29 b9 66 3d c3 da a1 3e
       0.2505219 -0.786882 0.056328926 0.31612214

weight_ih_l0 f4 [8, 5]
000000 ad 51 c5 3f 90 35 dd 3f 43 d5 a3 3f ba 17 30 3e
       1.541555 1.7281971 1.2799457 0.17196551
000010 19 cc 35 bf e6 3d e9 be 0d 95 d4 bd 42 a7 b6 be
       -0.71014553 -0.45555037 -0.10379992 -0.35674483
000020 3a 81 3b be 76 87 60 be db 40 83 3e 3b 7f dd bf
       -0.18311015 -0.21926674 0.25635418 -1.7304453
000030 92 5e 21 bf 28 f8 ee bb eb 5c 1a bf 45 d6 6f 3e
       -0.6303493 -0.007292766 -0.6029803 0.23421581
000040 1e 3d ab be 6d 3c 0d bf 82 63 a1 be 27 63 5b bf
       -0.33445066 -0.5517033 -0.3152123 -0.8569817
000050 36 ee 22 3e eb dc bc 3f 73 48 91 bf 1f 62 4d bf
       0.15911183 1.4754919 -1.1350235 -0.80227846
000060 a1 41 ac 3f d2 cb f9 bf 18 93 c0 bd d2 e4 a7 be
       1.3457528 -1.9515326 -0.09403056 -0.32791764
000070 85 26 50 bf d2 b1 74 3e 6c c0 97 be 2d e0 95 3f
       -0.81308776 0.23895958 -0.29638994 1.1709038
000080 c1 d7 56 3e 7d 99 44 3f f9 34 9b bf 84 28 97 be
       0.20980741 0.76796705 -1.2125541 -0.29523098
000090 f6 44 98 3e 26 fc 4c bf e0 4e d6 3d 64 0f 5d bf
       0.29740113 -0.8007225 0.10464263 -0.8635161

weight_hh_l0 f4 [8, 2]
000000 71 98 d6 3e 47 b1 d7 3e 8d 8e 26 3f 8d 74 cb 3e
       0.4191318 0.4212744 0.65061265 0.3973736
000010 6e a8 03 be 88 2c aa bb f1 5e 9e 3d bd 54 e8 bc
       -0.1285722 -0.005193297 0.077329524 -0.028360719
000020 52 f1 14 be e5 8b 9c 3e 02 56 24 3d f3 ab 43 be
       -0.14545181 0.3057548 0.040121086 -0.19108562
000030 e5 6a 83 bf ec 5b d4 3d 97 1f 7c 3f ee e1 3b 3f
       -1.0266997 0.10369095 0.984857 0.73391616

bias_ih_l0 f4 [8]
000000 e6 fb 1d 3f 71 e6 7c 3f 64 76 09 3f bc 3d d3 3d
       0.6171249 0.98789126 0.53696275 0.10314509
000010 99 29 82 be bc 6e 50 be 34 e3 47 3f bd 07 96 3f
       -0.25422361 -0.20354742 0.7808106 1.1721112

bias_hh_l0 f4 [8]
000000 87 71 75 3e 63 0b 60 3f c2 a7 a9 3e e2 6f 27 bf
       0.23969088 0.87517375 0.33135802 -0.65405095
000010 fb c7 c5 bf 6b 4a 8f bd f0 c6 4b 3f 40 db e0 3e
       -1.5451654 -0.06996616 0.7960043 0.43917274

weight_ih_l0_reverse f4 [8, 5]
000000 78 39 e9 be 92 ef b5 bf 2e 37 8c 3f 27 06 f1 3f
       -0.45551658 -1.4213736 1.095434 1.8830003
000010 ed 22 a6 3f 01 65 e6 be df dc fc be d7 10 0a bf
       1.2979409 -0.44998935 -0.4938726 -0.53931946
000020 f8 d1 29 bf 06 1d b0 3e 6f df 81 3e 61 ee 2b 3f
       -0.6633601 0.34397143 0.2536578 0.6716061
000030 2a 2b ab bf a6 13 1e bf e0 11 a4 be 8a aa 48 bf
       -1.3372548 -0.6174873 -0.32044888 -0.7838522
000040 46 d4 86 be 18 36 39 bd 3d 0f 9f 3e 11 7c 5f 3f
       -0.26333827 -0.045217603 0.31066313 0.87298685
000050 03 8a 34 3f ee e8 d4 3f 34 d8 ea be 91 49 c8 bf
       0.7052309 1.6633584 -0.45868075 -1.5647451
000060 87 32 46 bf 0f be 32 be 56 91 a3 be 75 7b 19 3f
       -0.7742085 -0.17455314 -0.3194682 0.59954005
000070 25 45 10 be d8 0d 4d 3e 26 d4 74 bf 48 68 2e bf
       -0.14088877 0.20024812 -0.9563621 -0.6812787
000080 94 63 ff be c0 62 88 3e 84 ad b3 3f 12 f9 c3 bf
       -0.4988066 0.2663784 1.4037328 -1.5310385
000090 53 4a b3 3c 13 7c 31 3f e1 06 27 bf 48 b8 41 3f
       0.021886026 0.6932995 -0.6524487 0.75671816

weight_hh_l0_reverse f4 [8, 2]
000000 e2 70 7f be b9 ae 9f 3d 17 07 93 3e 67 7d b0 be
       -0.24945405 0.077969976 0.28716347 -0.34470674
000010 7a 05 6f 3f c1 a8 ff be a7 14 86 bd a7 2d ca bd
       0.9336773 -0.49933437 -0.06546908 -0.09871989
000020 31 8b f5 bd 99 f8 9a bf a2 56 e5 bd 79 c9 59 3f
       -0.11989439 -1.2107116 -0.111981645 0.8507305
000030 33 a6 44 3f 2c 3b a8 3d c6 af f6 3e a4 e3 a6 be
       0.768161 0.08214411 0.4818098 -0.3259555

bias_ih_l0_reverse f4 [8]
000000 d9 d7 7c 3f 23 1c 10 be 3c 26 33 3f 4f b1 2d 3f
       0.9876686 -0.14073233 0.69980216 0.67848676
000010 ab d5 be 3f 0a 6f 48 bf ba 6d 49 3f 6c 2f 19 bf
       1.4908956 -0.7829443 0.78683054 -0.59837985

bias_hh_l0_reverse f4 [8]
000000 fb 30 ae 3e 1d 4f fc 3e e0 7c 8d 3e 29 b9 63 3e
       0.34021744 0.4927911 0.27634335 0.22238602
000010 7f f2 8c 3f 13 b3 85 be 13 25 8c 3f 2e 08 8a 3e
       1.1011504 -0.26113185 1.0948814 0.26959366

weight f4 [5, 4]
000000 4b d3 25 40 df 94 23 40 b0 42 53 c0 6f 91 b0 bf
       2.5910213 2.5559614 -3.3009453 -1.3794383
000010 ce 0e 89 3f dd cb 2a c0 77 29 19 bf cc 4e c1 3f
       1.0707643 -2.6686928 -0.59828895 1.5102172
000020 e4 77 64 c0 13 cd 4e 3f bf 0e 90 40 18 65 83 be
       -3.5698175 0.8078167 4.5018 -0.25663066
000030 84 02 4c 3d a0 7a e9 3e e0 47 80 be 40 9c bc bd
       0.049807087 0.45601368 -0.25054836 -0.0920949
000040 e0 68 f6 bc d4 6c 28 3e 84 38 41 3e 1c a2 e7 3d
       -0.030079305 0.16447765 0.18869215 0.11310217

bias f4 [5]
000000 86 90 d9 3e 37 37 c2 bf bb 7f a4 3f 24 18 22 be
       0.42493075 -1.51731 1.285148 -0.15829521
000010 34 9a a0 3e
       0.31367648

hidden f4 [2, 1, 2]
000000 a5 cf ce be 95 ca 77 3d 26 ef 1b 3f 53 29 56 be
       -0.40392795 0.06049593 0.60911787 -0.20914201

hidden f4 [2, 1, 2]
000000 77 ee 20 c0 2a f9 a7 3e 88 52 bd 3f c5 07 94 bf
       -2.5145547 0.32807285 1.4790812 -1.1564871
