models/keywords_model.pth (torch_old, 7435 bytes, 12 tensors)

transitions f4 [5, 5]
00000000: 4e01 62bf 6a7e 763e 3ac7 1e3f c7fc d3bf
00000010: ce3f 1cc6 271f 8f3f 9656 65bf 6a08 713f
00000020: 7e7b 75be ce3f 1cc6 cdd2 103d 5cbb 4c3e
00000030: 8c20 903f 5916 a0bf ce3f 1cc6 ce3f 1cc6
00000040: ce3f 1cc6 ce3f 1cc6 ce3f 1cc6 ce3f 1cc6
00000050: cedd af3e 3420 c73e 4e90 f1bd 19a6 96bf
00000060: ce3f 1cc6
-0.8828324 0.2407166 0.62022746 -1.6561517 -9999.951 1.1181382 -0.89585245 0.94153464
-0.2397289 -9999.951 0.035357285 0.19993347 1.1259933 -1.250682 -9999.951 -9999.951
-9999.951 -9999.951 -9999.951 -9999.951 0.3434891 0.38891757 -0.11795102 -1.1769439
-9999.951

word_embeds.weight f4 [225, 5]
00000000: f455 c3bf 78c6 3fbf 7e4b 27bf 7b94 cdbf
00000010: 1281 ccbd e54c 1cbf edd6 7abf 89c6 cdbf
00000020: 523b 35bf 21f3 9b3e 5d93 47bf ed54 80be
00000030: cc4c 62be cc1e d83f ae71 693e 561b ef3e
00000040: 4276 32bf 327e 94bf 5768 333f 2af3 4b3e
00000050: 5a27 5d3f ad0c 7a3e 1170 29bf 80f8 4e3f
00000060: 6515 8d3f 70d7 34be 7ea3 0fc0 6b18 b9bf
00000070: 7013 853d 1e3e 1ebf 9663 4cbf 8e7b 05be
00000080: 1e92 f03f 760c 8fbd debc 203e 740e 46bf
00000090: 11c8 4b3e 7320 3c3d 2381 1e3e d5c8 f3be
000000a0: 2580 e4bd 13cc 963e 1ddc 21be bbca d6bc
000000b0: d5ca 1640 88c9 84bf 2097 c93f b025 21bf
000000c0: 0cfb 6cbf 3f70 0b3f c3c4 873d bf97 dfbe
000000d0: 8852 433f 9492 e23e 8517 953f adef 0040
000000e0: 5bad 0b3e 99af 703f 6eca 3cbe d045 25bf
000000f0: 2702 c53f 369e 5ebf 802f 55c0 c629 3fbf
00000100: 9ca3 cebc 610e 83bf ed96 18bf 2098 80bf
00000110: 3fc5 55be 103a e5bb 0840 d63f 87f5 3c3c
00000120: b83d 34bf 60fd 39be ded8 7fbf f3e6 54bf
00000130: 5821 ecbe 282d 0fbf 5135 cb3e 0b4e 7bbf
00000140: adc9 01bf 1e57 cb3d 3f35 27bf a198 3b3f
00000150: d18b b7bf 636d 00bf aa42 2f3e 4ef2 22be
00000160: 711e 833e 1961 00bf 0d5d 85bf c363 3b3f
00000170: d413 86bf 2136 f0be 3176 953e 43ad fe3f
00000180: 9730 293f c063 983f fd16 513f 44eb 69bf
00000190: e242 b13f 234f 50bf ff75 6dbf f666 8e3f
000001a0: d0de aa3f f19a 1a3f c1bf d0bd 5aa2 1abe
000001b0: 4d4a 06c0 1008 1fbf 0f2e bdbf 450d 91bf
000001c0: 58c7 5f3f b74c 0fbf 7ba0 a43f dbf9 503f
000001d0: 3f89 513e 950d 9d3e eb76 093f 5c9d dcbe
000001e0: 1faf 2340 8b5c 6fbe 70cd 55bc a224 ee3f
000001f0: 1e8e fdbf 812e e63f 7d02 d03d c644 ae3e
00000200: 9968 363f cf7b e3bf 5833 b53e 3b89 993f
00000210: fe42 9bbe ac69 e1bf 0183 223f cc6c 4dbf
00000220: 6ff5 cdbf c3d1 efbf 1a25 0b3f 3fa2 283f
00000230: 51e5 1240 2ce4 2c3f ad62 db3f e85f e5bf
00000240: 0da3 aebf 05e1 7bbf bd53 c13f be82 243f
00000250: b5db f23e 3722 dbbe 8a50 0d3f 3356 c5bf
00000260: 5346 043f ad07 eb3d 354f 873e 0872 a93f
00000270: af2e e03f a04a ed3f d751 33bf 5d78 2340
00000280: 174e d53e 7177 58be 23ff 56bf fc8c d4be
00000290: b6fe 1fbf 7739 7abf f23b 603f c5bc 7c3f
000002a0: 3987 9f3e e989 c23f ee66 9a3f 9435 e8bf
000002b0: 1b43 cfbe 975b 75bf 4b36 d9bb bdbf a3bd
000002c0: b44a 583f 942a 953f 263a 073f 6929 cf3f
000002d0: 0fc4 76bf 9005 133e af5a 28be c098 b6be
000002e0: 2c4c dc3f 7499 9bbe c9f9 763e d5f9 ab3f
000002f0: 8d30 d93d bc9d 8c3f 93b3 aebe 6ce9 723f
00000300: 6fed 11bf edbd 563f 9bff e33f f543 48be
00000310: 81cd 043f 4396 ecbf 0140 3ac0 6be8 11bf
00000320: 09c3 0abf d9fe 643f 32c0 61bf 9373 083f
00000330: a0ca c5bf eef4 31be 4485 3a3f 18ac 693d
00000340: 5eea 673f b5eb 853f c044 05bf a96c ad3f
00000350: 7dc5 703e a303 f53f c809 eb3f 998c a93f
00000360: cfb4 77bf a431 a03f 3522 9b3f f575 07bf
00000370: 4fe4 5f3e e50a 13bf 0980 ba3f 34aa e23f
00000380: 6c2a d33f 645f ddbe 2fdc 8abe 922a b8bf
00000390: 79a7 9f3f 3914 a33f 75fe c73e 8f2d c63e
000003a0: edec a2bd ab3c af3e f9f0 723f 2128 b1bf
000003b0: a2a4 dc3f 5854 17c0 0ac8 6dbf 449a 963e
000003c0: 96f4 5b3e 9731 703f deb3 bb3f a83e 0ebf
000003d0: fb9b 3ebf 1da5 4fbe 015a 6bbe c20f 063b
000003e0: 2cca c03e 2da6 14bf 6994 12bf 3f47 813f
000003f0: b8e1 d7bd d2b2 96bf 0e41 babd 592c 103f
-1.5260606 -0.74912214 -0.65349567 -1.6060938 -0.09985556 -0.6105483 -0.979842 -1.6076213
-0.7079364 0.3045893 -0.77959234 -0.25064793 -0.22099608 1.6884398 0.22797272 0.46700543
-0.697117 -1.1601012 0.70081085 0.19916978 0.8638817 0.24418898 -0.66186625 0.8084793
1.1022154 -0.17660308 -2.2443538 -1.4460577 0.06497848 -0.61813533 -0.79839456 -0.13035414
1.8794591 -0.069847986 0.15697047 -0.77365804 0.19900538 0.045929383 0.15478949 -0.4761416
-0.11157254 0.2945257 -0.15806623 -0.026219716 2.35613 -1.0374002 1.5749245 -0.6294813
-0.9257057 0.5446815 0.06629326 -0.4367046 0.7629781 0.44252455 1.1647803 2.0146286
0.13640349 0.9401794 -0.18436596 -0.6455965 1.5391282 -0.8696016 -3.3310242 -0.74673116
-0.0252245 -1.0238763 -0.59605294 -1.0046425 -0.20876025 -0.006995447 1.6738291 0.011533148
-0.70406675 -0.18163061 -0.9994029 -0.831649 -0.4611919 -0.5592828 0.39689115 -0.9816596
-0.5069836 0.09928726 -0.6531562 0.7327977 -1.4339544 -0.5016691 0.17115274 -0.15912744
0.25609162 -0.5014816 -1.0419022 0.731991 -1.0474801 -0.46916297 0.29191735 1.9896625
0.6608977 1.1905441 0.816757 -0.9137461 1.3848536 -0.81370753 -0.9275817 1.1125171
1.3349247 0.6039267 -0.10192824 -0.15100995 -2.098285 -0.6212168 -1.4779681 -1.1332175
0.8741355 -0.5597643 1.2861475 0.8163125 0.20462511 0.30674425 0.5369708 -0.43088806
2.5575635 -0.23375146 -0.013049468 1.860493 -1.9808996 1.7982942 0.101567246 0.34036845
0.71253353 -1.7772158 0.35390735 1.1995004 -0.30324548 -1.7610373 0.63481146 -0.80244136
-1.6090525 -1.8735889 0.5435349 0.6587257 2.2952464 0.6753566 1.7139488 -1.7919893
-1.3643509 -0.9839023 1.510368 0.64261997 0.47433248 -0.4279954 0.5520102 -1.5416931
0.51669806 0.114760734 0.26427618 1.3237925 1.7514247 1.8538399 -0.7004675 2.5542214
0.4166114 -0.21139313 -0.8398306 -0.41513813 -0.62498033 -0.97743934 0.8759147 0.9872554
0.31157854 1.5198337 1.2062662 -1.8141351 -0.40480885 -0.9584288 -0.0066287867 -0.079955555
0.8448899 1.1653619 0.528231 1.6184512 -0.9639291 0.1435759 -0.16440843 -0.35663414
1.7210746 -0.30390513 0.24118723 1.3435618 0.106049635 1.0985637 -0.3412138 0.94887424
-0.5700292 0.83883554 1.781238 -0.19557174 0.51876074 -1.8483356 -2.9101565 -0.56995267
-0.5420385 0.89451367 -0.8818389 0.5330135 -1.5452461 -0.1737859 0.728596 0.057048887
0.9059199 1.0462557 -0.5205803 1.3548785 0.23512836 1.9141735 1.836236 1.3246032
-0.96760267 1.2515149 1.2119814 -0.52914363 0.21864437 -0.574385 1.4570323 1.7708192
1.6497321 -0.4323684 -0.27121112 -1.4387991 1.2472984 1.2740546 0.39061323 0.38706633
-0.07955346 0.34225973 0.94898945 -1.3840371 1.7237742 -2.364523 -0.9288336 0.2941457
0.21480021 0.9382567 1.4664266 -0.55564356 -0.7445676 -0.2027783 -0.22983553 0.002045617
0.37654245 -0.58066064 -0.57257706 1.0099868 -0.10541099 -1.1773322 -0.090944394 0.5631767

lstm.weight_ih_l0 f4 [8, 5]
00000000: 92d6 0c3f 2143 2e3f fad9 eebc 6bc6 f53d
00000010: cec5 30be dd8d e1be 5f0a a4be 6582 11bd
00000020: 6777 12bf ebc0 12bf 67b8 a13d 7cbc eabe
00000030: 0b3b c4be b730 f8bb d2bb bfbe 3f44 273f
00000040: c703 83be 6f5b c8be a593 43be bcec 13bf
00000050: cc39 b63e 6524 1b3f 2baa cfbe cc43 88be
00000060: 6cb1 2a3f e562 05bf 06d2 463e e1ac 14bf
00000070: 7dac 21bf 3d8e 8f3b e910 cfbe 2dfd c33e
00000080: c030 5ebe 1cfd fe3b 626b bebe f419 943e
00000090: 4d94 283f f1a6 c3bd df34 ddbe 5bcc 2fbf
0.5501491 0.6807118 -0.029156674 0.12000736 -0.17262957 -0.44053546 -0.32039163 -0.035524745
-0.57213444 -0.5732562 0.078965 -0.45846927 -0.38326296 -0.0075741666 -0.37447983 0.6533851
-0.2558882 -0.39132258 -0.1909929 -0.57783103 0.3559097 0.6060241 -0.40559515 -0.26614225
0.66676974 -0.52104026 0.19416055 -0.5807629 -0.6315382 0.00438097 -0.4044259 0.38279095
-0.21698284 0.007781638 -0.37191302 0.2892605 0.6585129 -0.09553326 -0.432044 -0.68671197

lstm.weight_hh_l0 f4 [8, 2]
00000000: 094c 2d3f 4126 983e 4284 943e ce97 f13d
00000010: 5eca b43e b0c9 7f3e efaa af3e 9f8f e03e
00000020: a9cf c63d 4edc 1a3f bb87 df3e 2651 d0bc
00000030: 4853 a2be 9afe 3b3d 5232 0c3f 0d0e e33e
0.67694145 0.29716685 0.29007155 0.117965326 0.35310644 0.24979281 0.343101 0.43859574
0.09707577 0.6049241 0.43658242 -0.02542932 -0.31704164 0.045897104 0.5476428 0.44346657

lstm.bias_ih_l0 f4 [8]
00000000: 8712 95be 8d73 24be e258 8c3e ce00 823e
00000010: 1d50 273f 9179 a43e 3c72 613e c24a 143e
-0.29115698 -0.16059704 0.27411562 0.2539124 0.6535662 0.32123998 0.22016233 0.14481643

lstm.bias_hh_l0 f4 [8]
00000000: d14d 2bbf 0306 8cbe b1ae 8b3d 6521 01bf
00000010: a7a9 23bf 82f8 e83e 3607 713e e4d6 16bf
-0.66915613 -0.27348337 0.06820429 -0.5044158 -0.63930744 0.45502096 0.23537907 -0.5892165

lstm.weight_ih_l0_reverse f4 [8, 5]
00000000: 0164 0a3d 5085 db3e b9fc cb3e a14c 253f
00000010: c971 8fbe c577 a03e cabc 0fbf 3e7d d5bd
00000020: 8843 dabe 45a1 14be cf5a ce3e e95b b33e
00000030: 66e5 c0be eabb 32be 1dbe 10be 7ca0 8bbe
00000040: cf66 c9be 8c3f 023f edd9 f13e f651 183f
00000050: 2c80 c0be f306 063f 5371 5abe 672d 10be
00000060: 8503 2fbe 8c79 a2bd b6d6 6bbe 14d7 093e
00000070: a151 acbe 574c 573e 739e 18bf 7a45 80be
00000080: 62f3 ffbe 1740 f43e 619b f73e 1597 0bbf
00000090: bbe5 c3be 9617 1f3f ea89 5d3e 6c37 f63e
0.033786777 0.42875147 0.3984125 0.6457005 -0.280165 0.31341377 -0.56147444 -0.10424279
-0.42629647 -0.14514644 0.40303656 0.3503106 -0.37675017 -0.17454496 -0.14135022 -0.27270877
-0.3933625 0.50878215 0.47236577 0.5950006 -0.37597787 0.52354354 -0.21332292 -0.1407982
-0.17091186 -0.079333395 -0.23031124 0.13460952 -0.33656028 0.21025215 -0.59616774 -0.25053006
-0.49990374 0.47705147 0.48360732 -0.5452741 -0.38261208 0.62145364 0.21634641 0.4808916

lstm.weight_hh_l0_reverse f4 [8, 2]
00000000: 1c9f 0abf 6d0a a23e a4dd e73e d9d5 2fbe
00000010: 4b44 fcbc 38b4 033f a266 483e a5d6 433e
00000020: f3ac 9d3b 9ca5 9abe ebb3 e4be ba36 3b3f
00000030: aee5 5dbd 7f0f 203f 1222 153f 159c c5be
-0.5414903 0.3164858 0.45286286 -0.1717142 -0.030794283 0.51446867 0.19570401 0.19124849
0.004811877 -0.30204475 -0.44668517 0.7313038 -0.054174118 0.62523645 0.5825511 -0.38595644

lstm.bias_ih_l0_reverse f4 [8]
00000000: dc0d 7e3d 6f47 17be 4443 65bb 391f ff3e
00000010: 7220 e23e 5224 24bf 37f2 acbe 6796 e9be
0.062024936 -0.14773344 -0.003498272 0.49828508 0.4416538 -0.6411792 -0.33778545 -0.4562256

lstm.bias_hh_l0_reverse f4 [8]
00000000: 061e 16bf b235 f93e 3ded dabe f8fd 293d
00000010: b73a 523d 1edd f2bd 94d0 efbc 9b7a d33e
-0.5863956 0.4867378 -0.42759123 0.04150197 0.051325526 -0.11858581 -0.029274262 0.41304478

hidden2tag.weight f4 [5, 4]
00000000: 3462 053d 25d5 9b3e ed7c c33d 6b84 fb3b
00000010: c6bb 073c 04b8 773e a3a4 413d 5902 db3e
00000020: faf0 513d 6873 193e a9e5 eb3e 84bc 0fbf
00000030: 6f4e 4c3d 39d2 e93e 9876 80be 54e2 bcbd
00000040: 50c6 f6bc 11ad 283e 6f84 413e b5f9 e73d
0.032564357 0.30436054 0.09545312 0.0076756976 0.008284515 0.2419129 0.04727615 0.4277523
0.051255204 0.1498543 0.46073654 -0.56147027 0.049879488 0.456682 -0.2509048 -0.09222856
-0.03012386 0.1647227 0.18898176 0.11326925

hidden2tag.bias f4 [5]
00000000: ae8b 5ebd cec0 20bf 1116 603f 6158 22be
00000010: 71da a03e
-0.054332428 -0.62794197 0.8753367 -0.15854026 0.31416658
